D:\user\xxh\ŃĐľżorĎîÄż\LSTM\LSTM»ă×Ü\´úÂë\ĘµŃématlab\flat\flat_with_sequence\data\flat_selected.csv
TransformerModel(
  (linear1): Linear(in_features=4, out_features=4, bias=False)
  (embed): Linear(in_features=4, out_features=32, bias=True)
  (pos_encoder): PositionalEncoding()
  (transformer_encoder): TransformerEncoder(
    (layers): ModuleList(
      (0-2): 3 x TransformerEncoderLayer(
        (self_attn): MultiheadAttention(
          (out_proj): NonDynamicallyQuantizableLinear(in_features=32, out_features=32, bias=True)
        )
        (linear1): Linear(in_features=32, out_features=2048, bias=True)
        (dropout): Dropout(p=0.1, inplace=False)
        (linear2): Linear(in_features=2048, out_features=32, bias=True)
        (norm1): LayerNorm((32,), eps=1e-05, elementwise_affine=True)
        (norm2): LayerNorm((32,), eps=1e-05, elementwise_affine=True)
        (dropout1): Dropout(p=0.1, inplace=False)
        (dropout2): Dropout(p=0.1, inplace=False)
      )
    )
  )
  (decoder): Linear(in_features=32, out_features=12, bias=True)
  (linear2): Linear(in_features=12, out_features=4, bias=False)
)
D:\user\xxh\ŃĐľżorĎîÄż\LSTM\LSTM»ă×Ü\´úÂë\ĘµŃématlab\flat\flat_with_sequence\data\flat_selected.csv
TransformerModel(
  (linear1): Linear(in_features=4, out_features=4, bias=False)
  (embed): Linear(in_features=4, out_features=32, bias=True)
  (pos_encoder): PositionalEncoding()
  (transformer_encoder): TransformerEncoder(
    (layers): ModuleList(
      (0-2): 3 x TransformerEncoderLayer(
        (self_attn): MultiheadAttention(
          (out_proj): NonDynamicallyQuantizableLinear(in_features=32, out_features=32, bias=True)
        )
        (linear1): Linear(in_features=32, out_features=2048, bias=True)
        (dropout): Dropout(p=0.1, inplace=False)
        (linear2): Linear(in_features=2048, out_features=32, bias=True)
        (norm1): LayerNorm((32,), eps=1e-05, elementwise_affine=True)
        (norm2): LayerNorm((32,), eps=1e-05, elementwise_affine=True)
        (dropout1): Dropout(p=0.1, inplace=False)
        (dropout2): Dropout(p=0.1, inplace=False)
      )
    )
  )
  (decoder): Linear(in_features=32, out_features=12, bias=True)
  (linear2): Linear(in_features=12, out_features=4, bias=False)
)
D:\user\xxh\ŃĐľżorĎîÄż\LSTM\LSTM»ă×Ü\´úÂë\ĘµŃématlab\flat\flat_with_sequence\data\flat_selected.csv
TransformerModel(
  (linear1): Linear(in_features=19, out_features=19, bias=False)
  (embed): Linear(in_features=19, out_features=32, bias=True)
  (pos_encoder): PositionalEncoding()
  (transformer_encoder): TransformerEncoder(
    (layers): ModuleList(
      (0-2): 3 x TransformerEncoderLayer(
        (self_attn): MultiheadAttention(
          (out_proj): NonDynamicallyQuantizableLinear(in_features=32, out_features=32, bias=True)
        )
        (linear1): Linear(in_features=32, out_features=2048, bias=True)
        (dropout): Dropout(p=0.1, inplace=False)
        (linear2): Linear(in_features=2048, out_features=32, bias=True)
        (norm1): LayerNorm((32,), eps=1e-05, elementwise_affine=True)
        (norm2): LayerNorm((32,), eps=1e-05, elementwise_affine=True)
        (dropout1): Dropout(p=0.1, inplace=False)
        (dropout2): Dropout(p=0.1, inplace=False)
      )
    )
  )
  (decoder): Linear(in_features=32, out_features=12, bias=True)
  (linear2): Linear(in_features=12, out_features=19, bias=False)
)
Epoch 1/4000, Loss: 1.1662927730174004
Epoch 2/4000, Loss: 0.9362184571314461
Epoch 3/4000, Loss: 0.8330101540571526
Epoch 4/4000, Loss: 0.7635414656959002
Epoch 5/4000, Loss: 0.72584080205688
Epoch 6/4000, Loss: 0.697287876017486
Epoch 7/4000, Loss: 0.6755163956292068
Epoch 8/4000, Loss: 0.658375125519837
Epoch 9/4000, Loss: 0.6382212967057771
Epoch 10/4000, Loss: 0.6306074189988873
…
