D:\\user\\xxh\\研究or项目\\LSTM\\LSTM汇总\\代码\\实验matlab\\experiment\\experiment_5.csv
lstmModel(
  (linear1): Linear(in_features=4, out_features=4, bias=False)
  (encoder_linear): Linear(in_features=4, out_features=64, bias=True)
  (lstm): LSTM(64, 64, batch_first=True)
  (decoder_linear): Linear(in_features=64, out_features=4, bias=True)
  (linear2): Linear(in_features=4, out_features=4, bias=False)
)
Epoch 1/2000, Loss: 0.6482488859072327
D:\\user\\xxh\\研究or项目\\LSTM\\LSTM汇总\\代码\\实验matlab\\experiment\\experiment_5.csv
lstmModel(
  (linear1): Linear(in_features=4, out_features=4, bias=False)
  (encoder_linear): Linear(in_features=4, out_features=64, bias=True)
  (lstm): LSTM(64, 64, batch_first=True)
  (decoder_linear): Linear(in_features=64, out_features=4, bias=True)
  (linear2): Linear(in_features=4, out_features=4, bias=False)
)
Epoch 1/2000, Loss: 0.6482488859072327
Epoch 2/2000, Loss: 0.3233979269862175
Epoch 3/2000, Loss: 0.2564956857450306
Epoch 4/2000, Loss: 0.23405751284211873
Epoch 5/2000, Loss: 0.22322637531906367
Epoch 6/2000, Loss: 0.21692866325378418
Epoch 7/2000, Loss: 0.2122427107580006
Epoch 8/2000, Loss: 0.20867761109024285
Epoch 9/2000, Loss: 0.2036921951919794
Epoch 10/2000, Loss: 0.20890324279665948
…
Epoch 1990/2000, Loss: 0.2913492348976433
Epoch 1991/2000, Loss: 0.29335406493395566
Epoch 1992/2000, Loss: 0.2859388286806643
Epoch 1993/2000, Loss: 0.2773994417488575
Epoch 1994/2000, Loss: 0.264371497258544
Epoch 1995/2000, Loss: 0.24804917480796576
Epoch 1996/2000, Loss: 0.23195335617288948
Epoch 1997/2000, Loss: 0.22576537534594535
Epoch 1998/2000, Loss: 0.22385478990152477
Epoch 1999/2000, Loss: 0.21682910354807972
Epoch 2000/2000, Loss: 0.21037508606910704
epoch:1113, minimum loss:0.1150415241997689
tensor([[ … )
D:\\user\\xxh\\研究or项目\\LSTM\\LSTM汇总\\代码\\实验matlab\\experiment\\experiment_5.csv
lstmModel(
  (linear1): Linear(in_features=4, out_features=4, bias=False)
  (encoder_linear): Linear(in_features=4, out_features=32, bias=True)
  (lstm): LSTM(32, 32, batch_first=True)
  (decoder_linear): Linear(in_features=32, out_features=4, bias=True)
  (linear2): Linear(in_features=4, out_features=4, bias=False)
)
Epoch 1/2000, Loss: 0.609092237111181
Epoch 2/2000, Loss: 0.3104706913046539
Epoch 3/2000, Loss: 0.2605827320739627
D:\\user\\xxh\\研究or项目\\LSTM\\LSTM汇总\\代码\\实验matlab\\experiment\\experiment_5.csv
lstmModel(
  (linear1): Linear(in_features=4, out_features=4, bias=False)
  (encoder_linear): Linear(in_features=4, out_features=32, bias=True)
  (lstm): LSTM(32, 32, batch_first=True)
  (decoder_linear): Linear(in_features=32, out_features=4, bias=True)
  (linear2): Linear(in_features=4, out_features=4, bias=False)
)
Epoch 1/2000, Loss: 0.609092237111181
D:\\user\\xxh\\研究or项目\\LSTM\\LSTM汇总\\代码\\实验matlab\\experiment\\experiment_5.csv
lstmModel(
  (linear1): Linear(in_features=4, out_features=4, bias=False)
  (encoder_linear): Linear(in_features=4, out_features=32, bias=True)
  (lstm): LSTM(32, 32, batch_first=True)
  (decoder_linear): Linear(in_features=32, out_features=4, bias=True)
  (linear2): Linear(in_features=4, out_features=4, bias=False)
)
Epoch 1/1000, Loss: 0.609092237111181
Epoch 2/1000, Loss: 0.3104706913046539
Epoch 3/1000, Loss: 0.2605827320739627
Epoch 4/1000, Loss: 0.23945071533322335
Epoch 5/1000, Loss: 0.2254038631170988
Epoch 6/1000, Loss: 0.2192244085855782
Epoch 7/1000, Loss: 0.21502532249316572
Epoch 8/1000, Loss: 0.21084622886031867
Epoch 9/1000, Loss: 0.20701608419418335
Epoch 10/1000, Loss: 0.20272264163941145
…
