D:\\user\\xxh\\ÑĐ¾¿orÏîÄ¿\\LSTM\\LSTM»ă×Ü\\´úÂë\\ÊµÑématlab\\experiment\\experiment_5.csv
TransformerModel(
  (linear1): Linear(in_features=4, out_features=4, bias=False)
  (embed): Linear(in_features=4, out_features=36, bias=True)
  (pos_encoder): PositionalEncoding()
  (transformer_encoder): TransformerEncoder(
    (layers): ModuleList(
      (0-5): 6 x TransformerEncoderLayer(
        (self_attn): MultiheadAttention(
          (out_proj): NonDynamicallyQuantizableLinear(in_features=36, out_features=36, bias=True)
        )
        (linear1): Linear(in_features=36, out_features=1024, bias=True)
        (dropout): Dropout(p=0.1, inplace=False)
        (linear2): Linear(in_features=1024, out_features=36, bias=True)
        (norm1): LayerNorm((36,), eps=1e-05, elementwise_affine=True)
        (norm2): LayerNorm((36,), eps=1e-05, elementwise_affine=True)
        (dropout1): Dropout(p=0.1, inplace=False)
        (dropout2): Dropout(p=0.1, inplace=False)
      )
    )
  )
  (decoder): Linear(in_features=36, out_features=12, bias=True)
  (linear2): Linear(in_features=12, out_features=4, bias=False)
)
Epoch 1/1000, Loss: 1.0619213896617294
Epoch 2/1000, Loss: 0.7332287867181003
Epoch 3/1000, Loss: 0.7019265451934189
Epoch 4/1000, Loss: 0.7050848015677184
D:\\user\\xxh\\ÑĐ¾¿orÏîÄ¿\\LSTM\\LSTM»ă×Ü\\´úÂë\\ÊµÑématlab\\experiment\\experiment_5.csv
TransformerModel(
  (linear1): Linear(in_features=4, out_features=4, bias=False)
  (embed): Linear(in_features=4, out_features=36, bias=True)
  (pos_encoder): PositionalEncoding()
  (transformer_encoder): TransformerEncoder(
    (layers): ModuleList(
      (0-5): 6 x TransformerEncoderLayer(
        (self_attn): MultiheadAttention(
          (out_proj): NonDynamicallyQuantizableLinear(in_features=36, out_features=36, bias=True)
        )
        (linear1): Linear(in_features=36, out_features=1024, bias=True)
        (dropout): Dropout(p=0.1, inplace=False)
        (linear2): Linear(in_features=1024, out_features=36, bias=True)
        (norm1): LayerNorm((36,), eps=1e-05, elementwise_affine=True)
        (norm2): LayerNorm((36,), eps=1e-05, elementwise_affine=True)
        (dropout1): Dropout(p=0.1, inplace=False)
        (dropout2): Dropout(p=0.1, inplace=False)
      )
    )
  )
  (decoder): Linear(in_features=36, out_features=12, bias=True)
  (linear2): Linear(in_features=12, out_features=4, bias=False)
)
Epoch 1/1000, Loss: 1.0619213896617294
Epoch 2/1000, Loss: 0.7332287867181003
Epoch 3/1000, Loss: 0.7019265451934189
Epoch 4/1000, Loss: 0.7050848015677184
Epoch 5/1000, Loss: 0.6955035781580955
Epoch 6/1000, Loss: 0.5111087293550373
Epoch 7/1000, Loss: 0.4345354588981718
Epoch 8/1000, Loss: 0.3813703158963472
Epoch 9/1000, Loss: 0.3831025766674429
Epoch 10/1000, Loss: 0.3551682144962251
…
Epoch 542/1000, Loss: 0.1885026240721345
Epoch 543/1000, Loss: 0.18905704458244144
Epoch 544/1000, Loss: 0.18824494269676506
Epoch 545/1000, Loss: 0.18764291755855084
Epoch 546/1000, Loss: 0.18786415494978428
Epoch 547/1000, Loss: 0.18961782164871693
Epoch 548/1000, Loss: 0.1875267321895808
Epoch 549/1000, Loss: 0.19361529731191696
Epoch 550/1000, Loss: 0.18966394857503474
Epoch 551/1000, Loss: 0.18868198652751744
Epoch 552/1000, Loss: 0.18823783832602203
Epoch 553/1000, Loss: 0.18804827550426126
D:\\user\\xxh\\ÑĐ¾¿orÏîÄ¿\\LSTM\\LSTM»ă×Ü\\´úÂë\\ÊµÑématlab\\experiment\\experiment_5.csv
TransformerModel(
  (linear1): Linear(in_features=4, out_features=4, bias=False)
  (embed): Linear(in_features=4, out_features=32, bias=True)
  (pos_encoder): PositionalEncoding()
  (transformer_encoder): TransformerEncoder(
    (layers): ModuleList(
      (0-2): 3 x TransformerEncoderLayer(
        (self_attn): MultiheadAttention(
          (out_proj): NonDynamicallyQuantizableLinear(in_features=32, out_features=32, bias=True)
        )
        (linear1): Linear(in_features=32, out_features=2048, bias=True)
        (dropout): Dropout(p=0.1, inplace=False)
        (linear2): Linear(in_features=2048, out_features=32, bias=True)
        (norm1): LayerNorm((32,), eps=1e-05, elementwise_affine=True)
        (norm2): LayerNorm((32,), eps=1e-05, elementwise_affine=True)
        (dropout1): Dropout(p=0.1, inplace=False)
        (dropout2): Dropout(p=0.1, inplace=False)
      )
    )
  )
  (decoder): Linear(in_features=32, out_features=12, bias=True)
  (linear2): Linear(in_features=12, out_features=4, bias=False)
)
Epoch 1/1000, Loss: 0.8140317369438708
